model_mnist.pt (torch, 203440 bytes, 6 tensors)

conv1.weight f4 [32, 1, 3, 3]
00000000: 463a 26be 4855 193d 2ff8 81be d81c 0abd
00000010: 0cbe 9c3d 0c0b fbbd 086d 3d3d 033e 13be
00000020: 2060 11be 2681 1bbe 5108 e7be 2b91 ccbe
00000030: 8924 fb3e b0f7 9d3e 6ba9 413e 2ab4 23be
00000040: 85a8 dc3d 253e ac3e 5aff 08bd 69bd 893d
00000050: d92a 7a3e 487b d8be ec18 0a3e b130 a73e
00000060: f5cf efbe 9a67 673e 4ac6 4e3e 14a4 4a3e
00000070: b42d b83e 2eee b3be edef fd3e 2762 b13d
00000080: 8db7 08bf 494f dc3d 7136 e43d 54c4 04bf
00000090: 20ee 533d 25fb 98be 58f2 aabe 1b75 c83e
000000a0: 0334 f73d a8a0 2ebf e195 c63e 1f70 2c3e
000000b0: a3f2 a7bd 32a0 643e 0113 3f3e c8dc eb3e
000000c0: bf06 e9bd ef51 1fbe f0b3 ba3e e4ae 9abe
000000d0: a88e b0be 7f1a b7be aef8 5b3e f05c 4b3e
000000e0: fc62 e3be c7fe c6bd f984 823e 85d4 933e
000000f0: 8ea0 bfbe 266d 0a3e 37f6 f73b 752d c1bd
00000100: 1b0f cebe f65a 52be 8a15 1bbe ae9d 13be
00000110: b6cd f43d 9f74 cb3e b386 f43e 655e 9abd
00000120: 0b1d 7c3e 07b0 f53e 605d 873d 510d f33c
00000130: 7d7c fd3d 2a1f ab3e d531 11bf 671b f2be
00000140: 4b0d 5bbe e62f a5be 1413 983e a293 9e3e
00000150: 1ea3 d1bc 016a 193e 7f27 4f3d 8a1a 5f3e
00000160: dd3d 963e 831a b9bd 63b8 88b9 8341 303e
00000170: 16c4 11bf 5e65 c43e 171c 6fbe 5d15 44be
00000180: b980 353e 6e65 043e 2456 4a3e dcc3 8e3c
00000190: c9c4 eabd 0deb 48be 41b5 843e 6468 153e
000001a0: 410a 9e3e a8fe 253e be49 31bd 74d1 a4bc
000001b0: 3cef a1be 3a11 98bd 759f f53e 462a cabe
000001c0: ca79 0b3d 74d1 943e 45d3 b3bc ea6e 42be
000001d0: c9fc a33e d931 703e d823 ecbe 9a0f 1bbf
000001e0: 8b0b 813d 1f89 a43e 057e cabe 5345 8b3e
000001f0: 80bd d53e c9d3 2e3e af6e b5be aeb8 acbd
00000200: a909 a6be 96b7 91be 74e1 5c3e e91a 5c3d
00000210: 5851 3c3e 2293 f93d e2b5 aa3e 06e3 963e
00000220: 1e06 a33e 0c27 f53e 705e 213d f16c 25be
00000230: bcd9 19bd d4d0 d1bd ba8a d8be 7f7c 00bf
00000240: b8a2 d1be 3f12 8abd fc8e c63e 0e65 68be
00000250: 53bc 973e 02cb 0ebe 9421 823d 116e 733e
00000260: 99c8 403d 609b 04be 5398 cf3e 1b30 5e3d
00000270: a52e ebbe 3e1b 223e 3274 2f3e 2714 a6be
00000280: c082 65be b2fd e43e 52c9 2cbe c9cd 1cbf
00000290: f103 07bd e5c4 03bf 2cfa 99bd 221d ae3e
000002a0: d3af ddbe fc76 2abe 0469 943e a4cb a43d
000002b0: e93d 423e 2500 3c3e 7f54 bdbe 077f 3b3e
000002c0: ae58 143e 7c69 debe 3344 1cbf 2a7c 02bf
000002d0: 1015 2d3e 1f01 6b3d 01c2 dcbd 3d14 a4be
000002e0: 3131 8a3e cadc 903e e355 903e bd5f 243e
000002f0: 2799 e9bd dbda ccbe 72e8 143d a46d c3bd
00000300: 4257 f53c e124 9c3e b993 efbe b386 ac3d
00000310: bb98 b83e f21c 903d 4b84 5f3e 3d92 36be
00000320: 1bb9 003d e22b 4c3e 88d9 633e 337f 843e
00000330: b448 d73d a4cd 383e 07ee 1b3e 3708 d2bd
00000340: b617 1abe 1a86 fe3d 7ee6 8a3e ba41 8cbe
00000350: 9853 d0bc 6c2c 133e 5864 173e 1057 fe3c
00000360: e631 d6bd 468e d1bd f4f4 9abe 964f ffbd
00000370: 10cf 5bbe 7eae 09be e0be 953d 1078 cdbd
00000380: f81f 523d 4199 e33e 8318 85be 379a 05bd
00000390: fc97 a23e 0ec5 a2be 3c78 bdbd 1f9f c4bd
000003a0: 56cd 02be 40ee e0be 878e bebe d501 853e
000003b0: 4f46 9a3e d900 cbbd 763d 3abe d1bf 1b3e
000003c0: f008 8ebe bf5f ad3d 64ec bf3e 7522 cc3e
000003d0: 71ef f73c c2c0 393e 552d fc3e 45e0 253d
000003e0: ba52 1abf d2c4 b73e fd4f edbe f848 d0be
000003f0: bfc7 4e3e 630b 19be e791 a6be a524 1d3d
-0.16233167 0.037434846 -0.25384662 -0.033718914 0.07653436 -0.122579664 0.04624656 -0.14379124
-0.14196825 -0.15185985 -0.45123532 -0.39954504 0.49051312 0.30853033 0.18912284 -0.15986696
0.1077433 0.33641163 -0.033446647 0.0672558 0.24430408 -0.42281556 0.1348607 0.32654336
-0.46838346 0.22598115 0.20192829 0.19789153 0.3597237 -0.35142654 0.4959711 0.08661299
-0.53405076 0.1075731 0.111431964 -0.5186207 0.051740766 -0.29879108 -0.3338802 0.39151844
0.12070467 -0.6821389 0.38786224 0.16839646 -0.08200576 0.22326735 0.18659593 0.4606688
-0.1137824 -0.15558599 0.36465406 -0.30211556 -0.34483838 -0.35762402 0.21481583 0.19859672
-0.44411457 -0.09716564 0.25492075 0.28873077 -0.3742718 0.135182 0.007567193 -0.09432498
-0.402459 -0.20542511 -0.15144935 -0.14415619 0.11953299 0.39737412 0.47759017 -0.075375356
0.24620454 0.4798586 0.06609607 0.029669436 0.1237726 0.33422214 -0.5671666 -0.4728653
-0.2139179 -0.32263106 0.29702055 0.3097201 -0.025590476 0.14981844 0.050574776 0.21787468
0.29344073 -0.0903826 -0.0002607732 0.1721249 -0.5693983 0.38358587 -0.23350559 -0.19148774
0.17724885 0.12929317 0.19759423 0.017427377 -0.11463315 -0.19620915 0.25919536 0.14590603
0.30867198 0.16210425 -0.043283217 -0.020119406 -0.31627834 -0.07425161 0.4797322 -0.39485377
0.034051694 0.2906605 -0.021951327 -0.18987623 0.32028797 0.23456515 -0.46121097 -0.6057068
0.0630103 0.32135865 -0.3954927 0.27201328 0.4174614 0.17072977 -0.35436007 -0.08433662
-0.32429245 -0.28460377 0.21570379 0.0537366 0.18390405 0.121862665 0.3334189 0.2947008
0.31840605 0.47881353 0.039396703 -0.16154839 -0.037561163 -0.10244909 -0.4229334 -0.50189966
-0.40944457 -0.067417614 0.38780963 -0.226948 0.29635867 -0.13944629 0.06354061 0.23772456
0.047066305 -0.12949896 0.40545902 0.054245096 -0.45934024 0.15830705 0.17134169 -0.3243725
-0.22413158 0.44724804 -0.16873673 -0.61251503 -0.032962743 -0.5147231 -0.075184196 0.34006602
-0.43298206 -0.16646951 0.2898637 0.08046654 0.1896893 0.1835943 -0.36978528 0.18310176
0.14486954 -0.43439853 -0.61041564 -0.5097071 0.16902566 0.057374116 -0.10779191 -0.3204669
0.26990655 0.2829345 0.28190526 0.16052146 -0.114061646 -0.40010723 0.03635449 -0.09542397
0.029948834 0.30496886 -0.4679239 0.08424129 0.36054024 0.07036771 0.2182781 -0.17829223
0.03142653 0.19938615 0.2225095 0.25878295 0.10511914 0.18047196 0.15227519 -0.10255473
-0.15048108 0.124279216 0.27128977 -0.27393895 -0.025430486 0.14372414 0.14784372 0.031047374
-0.10458736 -0.10232215 -0.3026501 -0.12466352 -0.21465707 -0.1344547 0.07311797 -0.10032666
0.05130002 0.4445286 -0.25995263 -0.032617774 0.3175658 -0.31790966 -0.092514485 -0.096006624
-0.12773642 -0.4393177 -0.37218115 0.2597796 0.30131766 -0.09912271 -0.18187508 0.15209891
-0.27741194 0.08465528 0.3748504 0.3987004 0.030265542 0.18139938 0.49253336 0.040497083
-0.6028248 0.3589235 -0.4635009 -0.4068067 0.20193385 -0.1494575 -0.3253319 0.038365025

conv1.bias f4 [32]
00000000: 87c0 98be 808f f8bd 32ff 96bd 7d8b a53c
00000010: 18b9 7d3d 5c49 76bb 9aea ebbd 354c 923b
00000020: e758 2dbd 6ba9 89be 6973 70bd a360 4ebd
00000030: 291a 38be a21c 5cbd b4ab a5bc 450e 263d
00000040: 8c03 e8bd 7bd5 cdbd c1a2 163e 6dd7 1e3e
00000050: 1c5d 5cbe 8a3f a9bc 4ae6 70be 1aae c8bd
00000060: b768 85be e07a aa3d 04b9 9fbe 3acf b8bc
00000070: 2eb8 92bd 30a4 ac3d a24a 833c 5275 d2bd
-0.29834387 -0.121367455 -0.073728934 0.020208115 0.061944097 -0.0037580347 -0.11519356 0.004464651
-0.042321112 -0.26887068 -0.058703814 -0.05038513 -0.1797873 -0.053738244 -0.020223476 0.040540952
-0.113288015 -0.10050484 0.14710523 0.15511866 -0.21519893 -0.02066018 -0.23525348 -0.09798832
-0.26056454 0.08324218 -0.31195843 -0.02255975 -0.07164036 0.08429754 0.016026799 -0.10276283

conv2.weight f4 [64, 32, 3, 3]
00000000: b4ef 4d3c 0fa4 423d 881e 48bc aab7 51bd
00000010: 7df4 61bd 0023 babc 68fc ecbc 7b32 683d
00000020: 8158 ecbc 5f96 9f3d eed9 0f3e a8a0 18bd
00000030: 0a49 9dbd e2fa a73d d0d8 073e 9776 dabd
00000040: 312d 873d 1d5d 6c3e d898 a13c 15da 0cbc
00000050: e7f4 f63c 2181 d63c 3f51 ab3d 8f27 5cbd
00000060: 4459 8abd c76d ae3d 707b af3d ef89 3d3c
00000070: d229 4d3d f618 523d 24d8 9abd 855e 6bbd
00000080: 5bcc 0f3d 0f22 89be 6c7e 1bbe 39b5 1cbe
00000090: a040 7ebd 5459 293d 6857 77bd f644 debd
000000a0: e50a b63d 7308 c73d 2aa1 86be a493 b3bd
000000b0: c186 23bc 9ffa 67bd 1a11 20be 8547 2e3d
000000c0: b373 9e3d 8f6d 90bd 7839 18be f644 893d
000000d0: 71d5 7b3d d869 ce3c 63d8 073e 4465 553d
000000e0: 6044 8fbd f754 513d 00c2 043e 9863 1b3d
000000f0: 3e41 32bd b4fe eb3d 38fc 3a3e 1e28 16be
00000100: c76e 143e dd01 b73d 3eec 25be ebcc 98bd
00000110: 55f5 133e cadd eebd 0891 7ebe 2f7a f7bb
00000120: 660c c03d adc7 f8bd 3f37 1b3e cf77 143e
00000130: 2188 a4bd 4287 f3bd 178b 01bd 09a1 303e
00000140: d42f 3d3d 0199 0cbc c957 143d 3303 643c
00000150: 321f 15bd d3bb 0e3d bbde 44bd c2ab 6ebd
00000160: 4815 553c 631a 453b 29cc 183d c640 ce3d
00000170: 9c0a 8fbd 0799 d4bd 7189 1d3d 2c6a c03d
00000180: ec50 02be 15cb 163c 8380 8b3d 0670 023d
00000190: b569 d9bc a206 68bc 6f17 f7bc d846 bd3c
000001a0: f5db ee3b fe2d 22be cce6 c3bb 040a d93d
000001b0: ba08 413d fa81 49bd a8ff 4abd 84e1 893d
000001c0: 9ecc db3d 199c 2ebe 30f9 b23b 40eb 203e
000001d0: 92df 88bc 69f0 b13c 0a5b 023e 9998 97bd
000001e0: abb6 a4bd 4b84 103e bea1 783e e7df 6cbe
000001f0: 22e1 87bd 163f 133e 3aa3 ab3c 0af5 4dbd
00000200: 7d96 1dbc edb1 3fbe dcff 99bd 9062 163d
00000210: 33af 73bd e299 8bbd 3810 4dbb 5270 01be
00000220: 0667 debd c161 0b3e 7837 9abd 495b 61be
00000230: e91b c0bd 0d42 a33c 18ec 1dbd e35a 0abe
00000240: 5521 94bd 93a8 8cbc edd1 ff3c aa92 b0bd
00000250: ae3d 9f3d b28e 1cbd 029a 783c 34e0 133d
00000260: 418f 46bd c6da 1f3e ffea c2bd 1d52 fdbd
00000270: fa92 3b3e fb45 2c3e 0b2d c2bd 6de5 a83d
00000280: d23a 903e b2d9 a13d eab8 cb3b 7e82 72bd
00000290: 77c2 293d 664a 90bd 2644 04bd 7cff 20be
000002a0: cb5a 10bd a484 44bd 432f 2ebe be76 2fbe
000002b0: 9056 1dbe 261e 8bbd 2092 78bd b2f2 84bd
000002c0: 3c49 2cbe b3af cabb ae79 0cbe c33d 81bd
000002d0: 6ee0 b23d 3924 84bc 8221 93bc f650 163d
000002e0: 16eb f9bc 944b 66bd c7aa 36bc 8c06 f03d
000002f0: 9d1d 893d a8d4 3c3c 3b83 a43d d37b a23c
00000300: 07f7 e3bd f07a f43b 6176 703d fbc5 55be
00000310: 232b 17bd 101f 423d ab5c 8f3d e252 a33a
00000320: f898 b7bd 69ca cebb 8f21 ab3d f2f7 4e3d
00000330: 1519 26bd f30a 5d3d 13d9 0e3e a555 e53c
00000340: 3618 7e3d 528f 843c ad08 27bd d875 babb
00000350: 4b26 063e 6a7d 08be 0eff 60bd 17cb f93d
00000360: 3e84 2abd 00db f13a 1a00 ef3c 48ce 46bd
00000370: bca1 293c a352 27bd e10d f5bc cafd ea3c
00000380: 7c15 793c 418a 4ebd 0987 51bb c4a8 fc3c
00000390: 42e1 d1bd f04f 82bd b52f 5abd fa5a d0bd
000003a0: 18ae d7bd d70b eebd 8d75 6a3d e170 d2bd
000003b0: e802 81bd 1770 f63d 6902 5f3d 9160 cbbd
000003c0: fc60 2cbc 7819 3a3e dcec 57bd 246d b23d
000003d0: 1a28 933d 1ed1 dd3d dae1 2dbe f9ed acbc
000003e0: ecb7 173e 5144 81be c225 00be e28a 17be
000003f0: 31ac 893d 3b93 813c b8ed d6bb aae2 c7bd
0.012569357 0.04751974 -0.0122143105 -0.051200546 -0.055164803 -0.022721767 -0.02892895 0.056688767
-0.028850796 0.07792353 0.14047977 -0.03726259 -0.07679947 0.08202149 0.13266301 -0.106671505
0.066004165 0.23082395 0.019726202 -0.008596917 0.030146075 0.02618462 0.08365106 -0.053748664
-0.06755307 0.08517032 0.08568466 0.01156853 0.05008871 0.051293336 -0.07560757 -0.057463188
0.035106998 -0.26783797 -0.15184945 -0.15303506 -0.06207335 0.041344956 -0.06038609 -0.10852997
0.08888797 0.097184084 -0.26294833 -0.087683946 -0.009980858 -0.056635495 -0.15631524 0.042548675
0.077369116 -0.07052147 -0.14865673 0.067026064 0.06148285 0.025196955 0.13266139 0.052098528
-0.06995463 0.05110642 0.1296463 0.037936777 -0.04351925 0.1152319 0.18260276 -0.14663741
0.14495383 0.08935902 -0.162034 -0.0746096 0.14449055 -0.11663397 -0.24860013 -0.007552407
0.09377365 -0.1214746 0.15157793 0.14498828 -0.08033777 -0.11891033 -0.031626787 0.1724893
0.04618819 -0.008581401 0.03621653 0.013916778 -0.036406703 0.034847092 -0.048063975 -0.05826927
0.013005562 0.0030075542 0.037304077 0.10070948 -0.069844455 -0.1038075 0.038461152 0.09395251
-0.12726182 0.009203692 0.06811621 0.031845115 -0.026539663 -0.014161738 -0.030162541 0.02310507
0.0072894045 -0.15837857 -0.005978441 0.105976135 0.047127463 -0.04919622 -0.04956022 0.06732467
0.10732387 -0.17051734 0.0054618344 0.15714741 -0.01670817 0.021721082 0.12730041 -0.074021526
-0.08042654 0.14112966 0.2428045 -0.23132287 -0.066347376 0.14379534 0.020951856 -0.050282516
-0.009618399 -0.18720217 -0.075195044 0.03671509 -0.059493255 -0.0681646 -0.0031290185 -0.12640503
-0.10859494 0.13611509 -0.07530111 -0.22007479 -0.093803234 0.019928956 -0.038555235 -0.13511233
-0.0723292 -0.017170226 0.03122803 -0.08621724 0.07775436 -0.038222022 0.015173437 0.03610249
-0.04847646 0.15610799 -0.09517478 -0.123691775 0.18317786 0.1682357 -0.094812475 0.082468845
0.28169876 0.0790285 0.006217112 -0.05920648 0.04144522 -0.070454404 -0.032291554 -0.1572246
-0.035242837 -0.04797806 -0.17010216 -0.1713514 -0.15365052 -0.0679286 -0.06068623 -0.06491603
-0.16824812 -0.0061854958 -0.13718292 -0.06310608 0.08734213 -0.016130554 -0.017960314 0.036698304
-0.030507606 -0.05622442 -0.011149115 0.11719999 0.066951014 0.011525311 0.08032843 0.019834435
-0.11131101 0.0074609444 0.058706645 -0.20876305 -0.036906373 0.047392905 0.07000097 0.0012460614
-0.08964723 -0.0063107503 0.0835601 0.050529428 -0.040551264 0.05396552 0.13949995 0.02799494
0.062034808 0.016181622 -0.04077976 -0.0056903176 0.13100545 -0.13329092 -0.05493074 0.121969394
-0.041630022 0.0018452108 0.029174853 -0.04853657 0.010353502 -0.040850293 -0.029913845 0.02868547
0.015202876 -0.050424818 -0.0031971356 0.030842192 -0.10248043 -0.06362903 -0.053268153 -0.101736024
-0.105312526 -0.11623352 0.05724101 -0.10275436 -0.062993824 0.12033098 0.054445658 -0.09930528
-0.01052117 0.18173778 -0.05271612 0.08712223 0.07185383 0.108309016 -0.16980687 -0.021109568
0.14816254 -0.25247434 -0.12514403 -0.14799073 0.06722296 0.015817275 -0.0065591 -0.097600296

conv2.bias f4 [64]
00000000: e3cc a0bc 49de 453c 6669 c6bc 81f3 03bd
00000010: eec9 8cbd 69d2 40bd ce11 7f3c 4e15 413c
00000020: f495 a8bd e577 3cbc c663 b4bd 2ccb 14bd
00000030: 5aaf 80bc 61c4 68bd fe1c 933b 9327 63bd
00000040: 680c 86bd b73b b23b 45bb c23c 2446 debd
00000050: ef6b 013c af45 c7bd 2e54 c8bc 5daf 20bd
00000060: eec1 713c e1fc 7bbc 614e 30bd 0664 b2bc
00000070: 9e21 1dbd f646 4c3d 2f30 f23c bb53 bebd
00000080: b8eb 6dbd 35f2 2fbd 2c8d edbc f4d0 7a3d
00000090: 4fd9 13bc 755d 933c 5c02 083c c716 503d
000000a0: b2be a1bd 0fc5 debc c1d4 92bd 43ef a83c
000000b0: 7afa b2bd 5611 d3bc f6cf 81bd 97a1 d4bd
000000c0: 01c7 26bd 4eac 06bd dab8 96bd 9ea7 e0bc
000000d0: 50ae 49bd 2585 07bd 7e96 e43c 8da8 9c3b
000000e0: 2103 6d3c 5277 c0bc 856f d7bc d682 14bd
000000f0: cd73 7dbb 4491 d5bc 12f1 ccbc 9406 7dbb
-0.019628948 0.012076923 -0.02422018 -0.032214645 -0.068744525 -0.047075663 0.01556821 0.011784865
-0.08231726 -0.011503194 -0.08808093 -0.036326572 -0.015708614 -0.056827907 0.00448954 -0.055457663
-0.06545335 0.0054392475 0.023770938 -0.10853222 0.0078992685 -0.09730088 -0.024454203 -0.03922974
0.014755709 -0.015380115 -0.043043498 -0.02177621 -0.038362138 0.04987236 0.029563991 -0.09293314
-0.058086127 -0.042955596 -0.02899798 0.06123443 -0.009023978 0.0179889 0.008301344 0.050802972
-0.078977 -0.027193574 -0.07169486 0.020621901 -0.08739181 -0.025765102 -0.063384935 -0.10382383
-0.04071713 -0.032879166 -0.073594764 -0.027423676 -0.049238503 -0.03308596 0.027903792 0.004780835
0.014466078 -0.023494396 -0.026298294 -0.036257587 -0.003867376 -0.026070245 -0.025017295 -0.0038608657

fc1.weight f4 [10, 3136]
00000000: 8c58 41bc 23ce 98bd 2a60 48bd b46c 253d
00000010: c674 9dbd 336b b0bb 9cc3 37bc d5f5 bebc
00000020: 00d9 c1bc fb06 b1bb 5574 1e3c d180 303d
00000030: ee74 723d 94fd 933c 7e60 6c3d 563e acbd
00000040: e2a4 07be 776c 873d c0d1 ca3d dcea 9f3d
00000050: 466c 313c af68 c3bc 9229 6c3c 2503 893d
00000060: 2173 a1bd 4392 56bc 1799 7d3d c24d a03b
00000070: 3f20 0fbd 4150 0a3d 41fe f23c 7826 d63c
00000080: 5022 f2bd 2c62 0ebd 60ce ef3c b3ff 863c
00000090: c8f1 183c 7bd5 553d 62a2 ac3d 2a60 cdbd
000000a0: bd7c fdbd 1b84 eabb e933 c7ba 1629 c3bc
000000b0: a011 0f3b 3a3e 8f3c fba6 57bc c9aa 85bd
000000c0: 95eb 63bc af74 1d3d 24f9 513c f083 54bc
000000d0: 0640 babd 73cc 60bd 366f e7bc bcdc 513c
000000e0: 1ee8 433c 9dd4 76bd 1659 06be e0c8 abbd
000000f0: 9399 57bd e25e 23bd e6d5 4cbd 0bb3 863c
00000100: c40e a5bb 35aa 2bbd 6338 05bd 4441 1f3c
00000110: ea26 2bbd ed77 43bd 7a9e 23bc f17a 2bbd
00000120: 546c 78bd 5469 33be 6607 fcbd de25 4bbd
00000130: 685f 1e3d 6a2a 383d d9fb ff3c a70b d53c
00000140: 2e94 0cbb 15f7 163d 11d0 183d c88d df3c
00000150: 74e2 0f3d ebe5 133c 2601 1e3d d6f6 843c
00000160: 9c7e 053d d2e9 b53b bf35 67bd 69ae 4fba
00000170: 2e00 5bbd 6516 5ebd f501 f6bb 3393 143c
00000180: e18f 00bd 6ad7 a6bc 1ba5 15bd 3aba b0bd
00000190: 7b6b afbd ff1e 323d 81b1 36bd ddd1 113d
000001a0: 61ce efbc d079 33bd 2ec1 56bc f99a 9abd
000001b0: 0a09 003c 3922 79bb 6adb bb3b 8bd0 1cbc
000001c0: a820 93bd 79fe 5c3d 4c78 df3b 1cb0 3ebd
000001d0: c111 c4bc a228 223b c371 25bc ee53 c33c
000001e0: 4d64 d03d c6b9 ea3b b5c8 1ebe 7f16 583b
000001f0: 5d66 8d3d e8a0 07bd 78cf 663d 1620 ba3d
00000200: 6283 bc3d 359a c0bc 63d2 513d b681 1b3d
00000210: 148d 55bd 19d3 713b cb5e f03c a979 ed3c
00000220: ea29 e8bd cae2 e4bb 76f9 09bd a6aa cdbb
00000230: 7a6c 8d3c 150c c2bc 2361 d0bd d2e9 44be
00000240: 73ed debd 561d 8ebd bf33 45bc 0275 47bc
00000250: 98c4 fabc 2204 11bd 9fa9 a1bd 538b 29bd
00000260: 82f8 92bd da94 c8bb 4a74 2cbd b9c8 7d3d
00000270: d5bc afbd ad80 0abe 2402 38be 3d70 2fbe
00000280: a890 0bbd c22d c53d 2079 5abd f9d9 86bc
00000290: 0740 ca3c 3f31 6a3c 8149 53be 8d96 073d
000002a0: bf03 c13c be44 193d 8292 663d 4652 013d
000002b0: 05c4 ad3c c19d d0bc 6696 7f3d 210a a43c
000002c0: a6dc 4b3c 0234 d0bd 4cc5 8cbd 2e50 ef3d
000002d0: 1ea2 013d 9c0c 2f3d e04d a93c 917e c7bd
000002e0: 0280 09be db3f 65bc 3e46 b03c 81eb debb
000002f0: da3b c93c 4c18 623c cff6 9abb acbf 0abd
00000300: 1378 cabd 548d acbd c281 05bc c55e 2dbc
00000310: 2b7c a83b 5176 cebd 6eb2 ddbc 5b11 b0bb
00000320: 8f1c acbc 757b f7bc 6438 fabc 12cd bdbd
00000330: 0e98 69bd 2b6b 0dbd 7784 033d 463e cb3c
00000340: 5386 083a 42f3 3abd 2814 b2bb 825a 423d
00000350: 4e4e 1f3d 84fb f0bd d2a9 9abc 2136 dabc
00000360: 77a9 8c3a f46e 7d3b b992 06be 85e6 5dbe
00000370: c4f3 09be 25cd a6bd 0d86 86be d0ba 7dbe
00000380: dc9e edbd 4ed3 c2be 0fcd e2bd 0d9c 593c
00000390: d463 2c3e fb3c 1fbc 6277 18be 5126 d7bd
000003a0: 958e 31be 9737 80bd f584 fabc d994 3f3d
000003b0: 5c1f 82bc e4a1 93bb 0545 803d 4eb7 e7bd
000003c0: b9df c93c d321 af3d 8751 3dbe 545e a8bd
000003d0: 1e15 b4bc 53c6 e8bb b608 443b 6cdb f3bc
000003e0: bae2 03bc a28a 79bd 6868 35bd b509 4ebb
000003f0: bbfd d4bc cdbf 94bd 4f5a afbc 9ac1 c4bc
-0.011800896 -0.074611925 -0.048919834 0.04038687 -0.076882884 -0.005383873 -0.0112160705 -0.023310581
-0.023663044 -0.0054024435 0.00967129 0.0430916 0.059193544 0.018065251 0.05770921 -0.08410327
-0.13246492 0.06612485 0.09903288 0.07808468 0.010829037 -0.023853628 0.014414208 0.06690053
-0.07883287 -0.013096395 0.061913576 0.004892082 -0.03494286 0.033767942 0.029662253 0.02614139
-0.11822951 -0.034761593 0.029273212 0.016479349 0.009334989 0.052205544 0.084294096 -0.100281075
-0.123773076 -0.0071568615 -0.0015197966 -0.023823302 0.0021830574 0.017485727 -0.01316237 -0.06526715
-0.013911148 0.038441356 0.012815747 -0.0129709095 -0.09094243 -0.054882478 -0.028251272 0.012808975
0.0119571965 -0.060261358 -0.13119921 -0.08387923 -0.052636694 -0.03988541 -0.050008677 0.016442796
-0.0050371606 -0.04191037 -0.032524478 0.00972015 -0.04178516 -0.047721792 -0.009986514 -0.041865293
-0.060650185 -0.17520648 -0.12306099 -0.04959666 0.038665205 0.044962324 0.03124802 0.026006533
-0.0021450627 0.03685673 0.037307803 0.027289286 0.035128072 0.009026985 0.038575314 0.016230982
0.032591447 0.005551555 -0.05644774 -0.00079224125 -0.05346697 -0.054220576 -0.0075075575 0.009068298
-0.031387214 -0.02036639 -0.03653441 -0.0862927 -0.08565422 0.04348659 -0.044602875 0.03560053
-0.029273214 -0.04381734 -0.013107581 -0.0754909 0.007814655 -0.0038014783 0.0057329433 -0.009571205
-0.07183963 0.05395362 0.0068197604 -0.04655467 -0.023934247 0.0024743457 -0.010097924 0.023843732
0.10175381 0.007163259 -0.15506251 0.0032972393 0.0690429 -0.033112437 0.0563502 0.09088151
0.09204747 -0.023511032 0.05122603 0.0379655 -0.052136496 0.0036899506 0.029342076 0.028988676
-0.113361195 -0.006985043 -0.03368517 -0.0062764464 0.01726364 -0.023687402 -0.10174777 -0.1922982
-0.108851336 -0.06939189 -0.012036263 -0.012173893 -0.030611321 -0.035404332 -0.07893681 -0.041392636
-0.07176305 -0.00612126 -0.04210309 0.061959002 -0.08580939 -0.13525648 -0.17969567 -0.1713266
-0.0340735 0.09627868 -0.05333817 -0.01646136 0.024688734 0.014293968 -0.20633508 0.03310256
0.023561357 0.037419073 0.056292064 0.031572603 0.021211633 -0.025465848 0.06239929 0.020024361
0.012442743 -0.1016617 -0.06873569 0.11685215 0.031648748 0.042736635 0.020667017 -0.097409375
-0.13427737 -0.013992275 0.02151787 -0.0068029766 0.024564672 0.013799738 -0.004729129 -0.0338742
-0.098861836 -0.08425394 -0.008148612 -0.010581677 0.005141755 -0.10081161 -0.027062621 -0.0053731627
-0.021009712 -0.030210236 -0.030544467 -0.0926763 -0.057029776 -0.03452603 0.03210875 0.024809968
0.0005208004 -0.045642145 -0.0054345317 0.047449596 0.038893037 -0.11766723 -0.018879805 -0.026637139
0.0010731657 0.003867087 -0.13141908 -0.21669967 -0.13471895 -0.08144597 -0.26274148 -0.24778295
-0.11602566 -0.38051838 -0.11074268 0.013281834 0.16834956 -0.009719129 -0.14889291 -0.10505355
-0.17339547 -0.06260603 -0.030580977 0.04677281 -0.015884094 -0.004505383 0.062631644 -0.113142595
0.024642812 0.08551373 -0.18488131 -0.08221117 -0.021982726 -0.00710372 0.0029912419 -0.029767714
-0.008049661 -0.060923226 -0.044289023 -0.0031438891 -0.025999894 -0.072631456 -0.021405367 -0.024018098

fc1.bias f4 [10]
00000000: cece 203c f57a 693d 8877 fb3c 55d8 813a
00000010: 0d83 5dbd a0da b5bc aedb e3bc 17cc a0bb
00000020: 80ba b73b 2fa3 9c3c
0.009814931 0.057002027 0.030696645 0.0009906391 -0.054080058 -0.022198975 -0.027814712 -0.004907142
0.0056069493 0.01912078
