model_mnist.pt (torch, 203440 bytes, 6 tensors)

conv1.weight f4 [32, 1, 3, 3]
0	0xbeaf4edc	-0.34239852
1	0xbf0bdca5	-0.5463355
2	0x3e9463ca	0.28982383
3	0x3d83d80c	0.06437692
4	0x3e98959f	0.29801652
5	0x3d64b8a1	0.05584014
6	0x3e8942b3	0.268087
7	0xbdde06ec	-0.10841164
8	0xbf46d9c9	-0.77676064
9	0x3e46bb55	0.19407399
10	0xbd44420f	-0.04791456
11	0x3e1309ce	0.14359209
12	0x3dbc289a	0.09187432
13	0xbe25c8ea	-0.16189924
14	0xbe98c489	-0.29837444
15	0x3e3bfead	0.1835887
16	0x3d3c3516	0.045949064
17	0x3eb76f84	0.35827267
18	0xbbae7bb9	-0.0053248075
19	0xbb9c99c6	-0.0047790734
20	0x3ef5d46c	0.48013628
21	0xbeeb30b6	-0.459356
22	0xbf41c4c9	-0.75690895
23	0xbde8a108	-0.11358839
24	0x3f19352d	0.59846765
25	0xbe7647d7	-0.24050842
26	0xbe55e716	-0.20888934
27	0xbea251a6	-0.31702918
28	0xbfa131b7	-1.2593297
29	0xbf439ad2	-0.7640811
30	0xbfb3107e	-1.3989408
31	0x3e684733	0.2268341
32	0x3eb96990	0.3621335
33	0xbf8a0d96	-1.0785396
34	0xbd95a6e1	-0.0730722
35	0x3ef053d6	0.46938962
36	0xbc8a1ed5	-0.016860405
37	0x3f01f206	0.50759923
38	0x3e2a002c	0.16601628
39	0xbe9b5a91	-0.30342534
40	0x3e915c53	0.2839075
41	0x3d9d8982	0.07692243
42	0xbf12b04d	-0.57300264
43	0xbf02ec12	-0.51141465
44	0xbf853456	-1.0406597
45	0xbf2c0c3e	-0.6720618
46	0xbe9980da	-0.29981118
47	0x3d93b2c6	0.07211833
48	0xbee9868d	-0.45610467
49	0x3d6a1086	0.057144664
50	0x3e0b113c	0.13580793
51	0xbe864b64	-0.26229393
52	0x3e046371	0.12928559
53	0x3ee971e1	0.45594695
54	0xbce62a13	-0.028096234
55	0xbf2a542b	-0.6653468
56	0xbe3dd7e4	-0.18539387
57	0x3f129176	0.57253206
58	0x3eb627db	0.35577282
59	0xbd806b48	-0.06270462
60	0xbd949ad4	-0.072560936
61	0x3d5e5392	0.054278918
62	0x3c82a218	0.015946433
63	0xbdb42cfb	-0.08797642
64	0xbed28aaf	-0.41121432
65	0x3deaa35f	0.11456942
66	0xbf05efa8	-0.5231881
67	0x3ebd733b	0.37001976
68	0x3d37000a	0.04467777
69	0x3ea020c0	0.31274986
70	0x3ea0d9b1	0.31416085
71	0xbe58fa93	-0.21189336
72	0x3e629bcd	0.22129746
73	0xbd8db155	-0.06918589
74	0xbf2a47ab	-0.66515607
75	0x3c28b6d0	0.010297492
76	0x3f217be2	0.63079655
77	0x3ea3b7e4	0.31976235
78	0xbed6fc84	-0.4198953
79	0xbe13e6cc	-0.14443511
80	0x3dde1092	0.10843004
81	0xbed6414a	-0.41846687
82	0xbf1d65e8	-0.6148362
83	0xbbab0a27	-0.005219716
84	0x3e485898	0.19565046
85	0x3effc193	0.49952373
86	0x3f0db1e0	0.5534954
87	0x3d000e22	0.031263478
88	0xbe41c937	-0.18924414
89	0xbec46060	-0.38354778
90	0x3e3fa29d	0.18714376
91	0x3ebe9b36	0.37227792
92	0xbefbc421	-0.49173072
93	0x3c72cf9c	0.014820006
94	0x3c83d2e2	0.016091768
95	0xbd584b78	-0.052806348
96	0x3de01229	0.10940964
97	0x3e78362f	0.2423942
98	0x3ed1203d	0.40844908
99	0x3dfb93e0	0.12284064
100	0x3f1c65da	0.61092913
101	0xbf50e437	-0.8159823
102	0x3ef07155	0.46961465
103	0x3d607f7d	0.054809082
104	0xbef93a3d	-0.48677245
105	0xbec4e1dd	-0.3845357
106	0xbf27c3d8	-0.6553321
107	0xbe7bb526	-0.24580821
108	0xbf05152f	-0.5198545
109	0x3eba44d4	0.36380637
110	0x3db8a784	0.09016326
111	0xbdd3800b	-0.10327157
112	0x3e99c254	0.30031073
113	0xbd05c547	-0.03265884
114	0x3e789659	0.24276103
115	0x3e39fe51	0.1816342
116	0xbec44623	-0.3833476
117	0x3e32b091	0.17450167
118	0x3ee2f5a1	0.44328025
119	0xbe7303f7	-0.23731981
120	0xbea3fbdc	-0.3202809
121	0x3f00d06d	0.5031803
122	0xbc3e68ae	-0.011621637
123	0xbf50d4c7	-0.8157467
124	0xbdc56437	-0.09638255
125	0x3ef6c052	0.48193604
126	0x3e7d137c	0.24714464
127	0x3deb934d	0.11502705
128	0xbdf162b2	-0.11786403
129	0xbe1a9037	-0.15094076
130	0x3e7d3435	0.24726947
131	0xbadbcce2	-0.0016769434
132	0x3dac0264	0.083988935
133	0x3e89ad6b	0.2689012
134	0xbedd2903	-0.43195352
135	0xbec0db3d	-0.37667266
136	0xbe48d0c1	-0.19610883
137	0x3f10fbff	0.56634516
138	0x3ecb3f53	0.3969675
139	0x3f139f08	0.5766454
140	0x3c7d56bc	0.015462574
141	0x3e0e5ccf	0.13902591
142	0xbe47a8f5	-0.19498046
143	0xbf0b5809	-0.54431206
144	0x3c5afe02	0.013366224
145	0x3e982b09	0.29720333
146	0xbee648b4	-0.44977343
147	0x3e9a8fc3	0.30187806
148	0xbd2a27ff	-0.04154205
149	0xbef9d513	-0.48795375
150	0x3ec035ab	0.37540945
151	0xbdbb783d	-0.09153793
152	0x3e4b267a	0.19838896
153	0xbed83423	-0.42227277
154	0xbe85d514	-0.26139128
155	0x3e8e23ca	0.2776168
156	0xbf557e31	-0.8339568
157	0xbddc4638	-0.10755581
158	0x3ec75692	0.38933235
159	0xbee6d2f8	-0.4508283
160	0xbe8385e5	-0.2568809
161	0x3dcab094	0.09896961
162	0xbe7f4109	-0.24927153
163	0xbe96cd8e	-0.294537
164	0x3ed4ae6a	0.41539317
165	0xbe8999e3	-0.2687522
166	0x3d8cc994	0.068743855
167	0x3e273dbb	0.16332142
168	0x3e41ac52	0.18913391
169	0x3e80177f	0.25017926
170	0x3d9da737	0.07697909
171	0x3e12609e	0.14294669
172	0x3dbd8aee	0.09255014
173	0xbeaed8aa	-0.34149677
174	0x3be57655	0.0070026317
175	0xbee3fd97	-0.4452941
176	0x3e997991	0.2997556
177	0x3e94822b	0.2900556
178	0x3d227faa	0.03967253
179	0x3e0dc309	0.13843931
180	0x3eb9a34c	0.36257398
181	0xbe676037	-0.22595297
182	0xbe9c7d67	-0.30564424
183	0xbf255ae2	-0.645918
184	0x3f0c3b95	0.54778415
185	0xbe3250e8	-0.17413676
186	0xbeb2a6ed	-0.3489298
187	0x3ef0025d	0.46876803
188	0xbe4493b8	-0.19196975
189	0xbea196c3	-0.31560335
190	0xbf055f18	-0.52098227
191	0xbe962754	-0.2932688
192	0xbe45408a	-0.19262901
193	0x3e49445a	0.1965498
194	0xbe32aa04	-0.17447668
195	0x3f05f925	0.5233329
196	0x3e68d202	0.22736362
197	0x3e99feb5	0.3007714
198	0x3e9bc2f4	0.30422175
199	0x3ece353b	0.40274987
200	0x3e9dc279	0.30812433
201	0xbe734893	-0.23758154
202	0x3db2613b	0.087099515
203	0x3e416d22	0.18889287
204	0xbebc16ca	-0.36736137
205	0xbf28fa38	-0.66006804
206	0xbe12f43d	-0.14350982
207	0x3e007461	0.12544395
208	0xbe196989	-0.14981665
209	0xbf088302	-0.533249
210	0x3e102c9c	0.14079517
211	0x3f15aacf	0.5846376
212	0xbeb11594	-0.34586775
213	0xbf012d39	-0.5045963
214	0x3eb90b91	0.36141637
215	0xbcf11409	-0.029428499
216	0x3e7fe3d7	0.24989258
217	0xbcde1ef8	-0.027114376
218	0xbe187ae9	-0.14890637
219	0x3e3e58b2	0.18588522
220	0xbd9b935e	-0.075964674
221	0xbe909554	-0.28238928
222	0xbccd7a62	-0.02508277
223	0xbec47eaa	-0.38377887
224	0xbdbae6b1	-0.09126032
225	0x3e35137d	0.17683215
226	0x3ec2e043	0.38061723
227	0x3c8038e1	0.015652122
228	0xbefb384b	-0.49066386
229	0xbebb34e2	-0.36563784
230	0xbcb14e19	-0.021643685
231	0xbc2304ab	-0.009949843
232	0x3e9e6904	0.30939496
233	0x3ede9032	0.43469387
234	0x3e9ef4ef	0.31046245
235	0xbefec9bc	-0.49763286
236	0xbe5814c4	-0.21101671
237	0x3e8e6735	0.27813116
238	0xbe068c04	-0.13139349
239	0xbf0803f7	-0.5313105
240	0x3e04165a	0.12899151
241	0x3eeab77c	0.45843112
242	0xbed78b38	-0.42098403
243	0xbf554297	-0.83304733
244	0x3ed4e1f4	0.4157864
245	0x3bb6c3ce	0.005577541
246	0x3e689d04	0.22716147
247	0x3ec9a824	0.39386094
248	0xbeca30d9	-0.39490393
249	0xbe208608	-0.15676129
250	0x3e86509f	0.26233384
251	0xbf190ff9	-0.5979
252	0xbe5c209f	-0.21496819
253	0x3ddcac06	0.10774998
254	0x3e273a47	0.16330825
255	0x3ef46f71	0.47741273

conv1.bias f4 [32]
0	0xbd2c1d8d	-0.04202037
1	0xbefc9149	-0.49329594
2	0xbca218c7	-0.019787205
3	0x3db42a2b	0.087971054
4	0x3d80d69f	0.06290936
5	0xbd5b60ba	-0.053559043
6	0xbe1d636e	-0.1536996
7	0xbe39cfd6	-0.1814569
8	0xbe7301f8	-0.2373122
9	0xbe04e0f8	-0.12976444
10	0xbf0214e2	-0.50813115
11	0x3cb0234b	0.021501204
12	0xbea14701	-0.31499484
13	0xbe9eae10	-0.30992174
14	0xbec61306	-0.3868639
15	0xbec411b7	-0.38294765
16	0xbe228c36	-0.15873799
17	0xbd193d78	-0.037412137
18	0xbea580d2	-0.32324845
19	0xbec5fb4c	-0.38668287
20	0x3bc13369	0.005896021
21	0xbc0fd945	-0.008779828
22	0xbd0ad938	-0.033898562
23	0xbdea09fc	-0.114276856
24	0xbd18f1e4	-0.03734006
25	0xbe913597	-0.28361198
26	0xbe82adba	-0.25523168
27	0xbd6c006f	-0.0576176
28	0xbe8aad70	-0.27085447
29	0xbdac8b4d	-0.08425007
30	0xbea8e7ee	-0.32989448
31	0xbc954108	-0.018219486

conv2.weight f4 [64, 32, 3, 3]
0	0xbeb32f36	-0.34996957
1	0xbdaf6e20	-0.085659266
2	0x3dd5deb0	0.10442865
3	0x3ec4f87d	0.38470832
4	0xbe6aa96e	-0.22916195
5	0xbf07b7d5	-0.5301488
6	0x3e6fd068	0.23419344
7	0xbe9cf55c	-0.30655944
8	0x3e1b9d05	0.15196617
9	0xbea7d2c7	-0.32777998
10	0xbe3a141b	-0.18171732
11	0xbd313148	-0.04325989
12	0x3d1fd2e2	0.039019473
13	0xbb935bca	-0.004497026
14	0xbe2acda6	-0.16680011
15	0x3e6c29b7	0.23062788
16	0x3d9e4976	0.07728855
17	0x3e06db29	0.1316954
18	0xbdfe6615	-0.12421814
19	0xbe112e7c	-0.14177889
20	0xbddd5d87	-0.108088546
21	0xbe0412aa	-0.12897745
22	0xbd3c5666	-0.045980833
23	0xbd75903e	-0.059952013
24	0x3ee7e579	0.4529226
25	0x3e13321d	0.14374585
26	0xbf1aa548	-0.6040845
27	0x3e6707ac	0.2256152
28	0x3da3da17	0.08000582
29	0xbe0b23ab	-0.13587825
30	0x3d604501	0.054753307
31	0xbe507886	-0.20358476
32	0xbdb01770	-0.0859822
33	0xbeac11c7	-0.33607313
34	0x3d3ac55e	0.04559838
35	0xbe5f258d	-0.21791668
36	0xbb363908	-0.002780499
37	0xbe85d07c	-0.26135623
38	0xbddfe5c9	-0.109325
39	0xbe984a8f	-0.29744384
40	0xbe24fd9b	-0.16112368
41	0xbe665e64	-0.22496945
42	0xbced7654	-0.028987087
43	0xbe55201a	-0.20813027
44	0xbe3adf9f	-0.18249367
45	0x3e840263	0.2578307
46	0xbbab18aa	-0.005221446
47	0xbe26a56d	-0.16274042
48	0x3df099c5	0.11748079
49	0x3e109e6c	0.14122933
50	0xbec856e7	-0.391288
51	0xbdea3699	-0.11436195
52	0x3d6096e9	0.05483142
53	0xbf98dfc2	-1.1943285
54	0xbea9096b	-0.33014998
55	0xbc3119b5	-0.010809352
56	0xbcea1116	-0.0285726
57	0xbeb37573	-0.35050544
58	0xbe0de837	-0.13858114
59	0xbe5f5f3f	-0.21813677
60	0xbf15fcfe	-0.5858916
61	0x3e0c6984	0.13712126
62	0xbe516c0e	-0.20451376
63	0x3e3fa70a	0.18716064
64	0x3ced3ead	0.02896055
65	0xbd51f726	-0.05126109
66	0x3ceb2ea0	0.028708756
67	0xbe0a79cf	-0.13523029
68	0xbf8f2e39	-1.1185981
69	0xbea97b05	-0.3310167
70	0xbf280070	-0.6562567
71	0xbf536fdd	-0.82592565
72	0xbdb25807	-0.08708196
73	0x39a29a7a	0.00031014142
74	0x3e6c482a	0.23074403
75	0xbdab8853	-0.08375611
76	0xbdf96a30	-0.12178457
77	0x3e3a9b1a	0.18223229
78	0xbe304e8d	-0.17217465
79	0x3e064348	0.13111603
80	0xbe8f32f2	-0.27968556
81	0x3deed5d9	0.11661882
82	0xbe23e470	-0.1600511
83	0x3d49b8b3	0.04924841
84	0x3e7abfd0	0.24487233
85	0x3e3d8f88	0.18511784
86	0xbf0b39bd	-0.54384977
87	0x3e0c01bc	0.13672537
88	0x3ea71bfb	0.32638535
89	0xbeb4b188	-0.35291696
90	0x3ddc474c	0.10755786
91	0xbc76d2ae	-0.015064878
92	0x3e3fc785	0.18728454
93	0x3d4ae8af	0.04953831
94	0x3d77949d	0.060444463
95	0x3db02869	0.086014576
96	0x3e787284	0.24262434
97	0x3e0bf653	0.13668184
98	0x3ca9a73c	0.020709626
99	0x3d18e805	0.037330646
100	0xbd2afa7d	-0.04174279
101	0xbe5d39ec	-0.21604127
102	0x3c9b53b6	0.018960815
103	0xbe44e485	-0.19227798
104	0x3d302cbb	0.04301141
105	0xbf085216	-0.53250253
106	0xbe289008	-0.16461194
107	0x3d9c8cad	0.07644019
108	0x3ec9cec1	0.39415553
109	0xbc28078a	-0.010255704
110	0x3e5e8a6d	0.21732493
111	0x3df18930	0.117937446
112	0xbd458b85	-0.04822876
113	0xbe18336a	-0.14863363
114	0xbe951af5	-0.2912213
115	0xbc9f65e2	-0.019457761
116	0x3d9ad181	0.07559491
117	0x3dc67043	0.09689381
118	0xbef8877f	-0.48540875
119	0xbedcd40b	-0.43130526
120	0x3e0ae6e2	0.13564637
121	0xbd5df770	-0.054191053
122	0xbdf5ac0c	-0.11995706
123	0x3ed21002	0.41027838
124	0x3eb0056a	0.3437913
125	0xbe997d12	-0.29978234
126	0xbd89d405	-0.06729893
127	0xbe2b35f7	-0.16719805
128	0x3de3aa8d	0.11116514
129	0x3dd4f453	0.10398164
130	0x3d3bcae7	0.0458478
131	0x3e1fd930	0.15610194
132	0xbc7ed285	-0.015553121
133	0x3dfdd78e	0.123946294
134	0x3e5ec31e	0.21754119
135	0x3df7cdfa	0.12099834
136	0xbd434a0a	-0.04767803
137	0x3def23c1	0.116767414
138	0x3ea12fcd	0.31481782
139	0xbdb5fa6c	-0.08885655
140	0xbd1db749	-0.038504872
141	0xbe670dd8	-0.22563875
142	0xbdafae8f	-0.08578216
143	0x3e85dbf0	0.26144361
144	0xbf56eafb	-0.839523
145	0xbe8d241a	-0.27566606
146	0x3d0d8b5a	0.034556724
147	0xbf983301	-1.1890565
148	0xbe096da0	-0.13420725
149	0x3dad20ac	0.08453497
150	0xbf1fb809	-0.6239019
151	0xbe4e6e14	-0.20159179
152	0x3e5d71b7	0.2162541
153	0x3e8aac37	0.27084514
154	0xbd2110ca	-0.039322652
155	0xbd301e4a	-0.042997636
156	0x3d89c83c	0.06727645
157	0xbd8043c9	-0.06262929
158	0x3e5691e3	0.20954089
159	0x3e8e1949	0.27753666
160	0x3e23e436	0.16005024
161	0xbf8840cb	-1.0644773
162	0x3e8ed51f	0.27896973
163	0xbe5be4c6	-0.21473989
164	0xbeb81d31	-0.3595977
165	0x3dc9d3d8	0.09854859
166	0x3c816374	0.015794493
167	0xbf76ff31	-0.9648314
168	0xbc59cbda	-0.013293231
169	0xbe93385b	-0.28753933
170	0xbf8b939b	-1.0904421
171	0xbd73ed2c	-0.059552357
172	0x3e70968c	0.23494929
173	0xbe1c252e	-0.15248558
174	0xbd8121e1	-0.0630529
175	0xbe435408	-0.19075024
176	0x3e0a76b6	0.13521847
177	0x3e007168	0.12543261
178	0x3e2d1e3d	0.16906066
179	0x3e812428	0.25222898
180	0x3ebf6c16	0.3738715
181	0x3c912a31	0.017720314
182	0x3c461c23	0.012091669
183	0x3ed746ff	0.42046353
184	0x3e10743d	0.14106841
185	0xbe4cb191	-0.19989611
186	0x3ebab079	0.36462763
187	0x3ea2b9d3	0.31782398
188	0x3e601526	0.21883067
189	0x3bf70da5	0.0075394684
190	0xbe0a0748	-0.1347934
191	0xbe1f40c2	-0.15552047
192	0xbd953823	-0.07286098
193	0xbea952aa	-0.3307088
194	0xbf2ea73b	-0.68223923
195	0xbee0fb4c	-0.43941724
196	0xbf2ac21a	-0.66702425
197	0xbf10bd79	-0.5653911
198	0xbe83819b	-0.2568482
199	0xbf350de9	-0.7072435
200	0xbe6727cb	-0.22573774
201	0xbccc370b	-0.02492859
202	0xbdb30dc0	-0.08742857
203	0xbe9566e7	-0.2918007
204	0x3e9243fd	0.28567496
205	0x3e1678a9	0.14694466
206	0xbe147da8	-0.14501059
207	0xbe08e528	-0.13368666
208	0xbda0fb8e	-0.0786048
209	0x3e9e3565	0.30900112
210	0xbcb4ab9f	-0.022054492
211	0xbdc89961	-0.0979488
212	0x3e643003	0.2228394
213	0x3e64aab0	0.22330737
214	0x3d544470	0.05182308
215	0x3c9e2d8f	0.019308833
216	0xbc290066	-0.010315036
217	0x3dc87460	0.09787822
218	0xbd0fd226	-0.035112523
219	0xbe7190bd	-0.2359037
220	0x3d41fbff	0.047359463
221	0x3d93520d	0.07193384
222	0xbf1021bb	-0.5630147
223	0x3d41aff4	0.047286943
224	0x3df29668	0.11845094
225	0x3e912357	0.28347275
226	0xbe079343	-0.1323977
227	0xbec7fa99	-0.39058378
228	0x3d810574	0.06299868
229	0x3d61c821	0.0551225
230	0xbf467603	-0.7752382
231	0x3df2c16e	0.118533
232	0xbdc33e25	-0.095333375
233	0xbf10a13a	-0.5649601
234	0xbe6a6177	-0.22888742
235	0xbd61fe08	-0.055173904
236	0x3da507f1	0.08058155
237	0xbe2d5bb3	-0.16929512
238	0x3e164753	0.14675646
239	0xbddd3c10	-0.10802472
240	0x3eb272fc	0.3485335
241	0x3c9e3b5c	0.019315414
242	0x3e1a1ed4	0.15050822
243	0x3dd1ea54	0.10249773
244	0xbe828de2	-0.25498873
245	0x3ddc83ed	0.1076735
246	0x3d7e13ad	0.062030483
247	0xbe8b6d90	-0.27232027
248	0xbe2e0796	-0.16995081
249	0xbdf47f00	-0.11938286
250	0x3e74282a	0.23843446
251	0x3aa4350a	0.0012528014
252	0x3bedd64b	0.0072582117
253	0xbdb39bb9	-0.08769936
254	0x3df3729a	0.11887093
255	0x3e69db64	0.22837597

conv2.bias f4 [64]
0	0x3caafb68	0.020871833
1	0xbe56f22e	-0.20990822
2	0xbda6a3bd	-0.08136699
3	0xbe98b809	-0.29827908
4	0xbe2e76ff	-0.17037581
5	0xbe269df7	-0.16271196
6	0xbdff5b49	-0.12468583
7	0xbe60d97d	-0.21957965
8	0xbd7e8b12	-0.062144347
9	0xbd940749	-0.07227952
10	0xbe6f1c31	-0.23350598
11	0xbd28233f	-0.04104924
12	0xbe379ad9	-0.17930163
13	0xbe9574a8	-0.29190564
14	0xbd910629	-0.07081253
15	0xbe12ef38	-0.14349067
16	0xbe57e361	-0.21082832
17	0xbe5c7a59	-0.21531047
18	0xbd9b18b4	-0.07573071
19	0xbc9010d4	-0.01758615
20	0xbe720b81	-0.23637201
21	0xbd0b83eb	-0.034061354
22	0xbe09791e	-0.13425109
23	0xbe8789f2	-0.2647243
24	0xbdf104dc	-0.11768505
25	0xbddadc6a	-0.10686572
26	0x3c68aa72	0.014200794
27	0xbdb4db6f	-0.08830916
28	0xbe0fb822	-0.14035085
29	0xbe6445e7	-0.2229229
30	0xbdb36019	-0.087585635
31	0xbe00f1b0	-0.12592196
32	0xbdf6a83c	-0.12043807
33	0xbd9da9ac	-0.07698378
34	0xbca23c09	-0.019804018
35	0xbe269459	-0.16267528
36	0xbe63e6c9	-0.22256006
37	0xbe1609c6	-0.14652166
38	0xbd78ebf7	-0.06077191
39	0xbdc86f68	-0.09786874
40	0xbe374c75	-0.1790026
41	0xbd3ab646	-0.045583986
42	0xbd95a123	-0.07306125
43	0xbe04325b	-0.12909834
44	0xbdaea9c5	-0.08528475
45	0xbe053814	-0.13009673
46	0xbd419aa0	-0.047266603
47	0xbe616775	-0.22012122
48	0x3c87464e	0.016513016
49	0xbd8cc3b3	-0.06873264
50	0xbd596d28	-0.053082615
51	0xbb84721d	-0.0040419237
52	0xbed3c3cd	-0.41360322
53	0xbe8f0b10	-0.27938128
54	0x3d258120	0.040406346
55	0xbd52af49	-0.051436696
56	0xbd58590a	-0.05281929
57	0xbca731f3	-0.02040956
58	0xbd7e0cf8	-0.062024087
59	0xbd931b81	-0.0718298
60	0xbdaef8dc	-0.0854356
61	0xbd74ab23	-0.05973352
62	0xbcb859a5	-0.022503683
63	0xbeabb9ca	-0.33540183

fc1.weight f4 [10, 3136]
0	0xbc3dc016	-0.011581441
1	0xbd5ff492	-0.0546766
2	0xbe6728d1	-0.22574164
3	0xbe7524df	-0.23939846
4	0x3d6cc736	0.05780717
5	0x3d63b467	0.055591967
6	0xbbe3e52f	-0.006954811
7	0xbd013f38	-0.03155443
8	0x3d741c33	0.059597205
9	0x3ba8a893	0.0051470487
10	0xbe250b3d	-0.16117568
11	0x3e0ad3d6	0.13557371
12	0x3e4829f1	0.1954725
13	0x3db86cf8	0.09005159
14	0xbbcef7d8	-0.0063161664
15	0x3dfdb98b	0.12388905
16	0x3b273dba	0.002551897
17	0x3e4c9afa	0.19980994
18	0x3dd65f89	0.10467441
19	0x3ec798e3	0.3898383
20	0x3e231652	0.15926483
21	0xbd0eeac3	-0.034891855
22	0x3d46d2ec	0.048540995
23	0x3ea0332e	0.31289047
24	0xbef4bf70	-0.47802305
25	0x3d35ed2b	0.044415634
26	0x3d8db3f3	0.06919088
27	0x3e1a603f	0.15075777
28	0x3d8d660e	0.06904231
29	0x3d53315e	0.051560752
30	0x3de438ff	0.11143684
31	0xbf0342ce	-0.5127381
32	0xbdc9f274	-0.098606974
33	0xbe0ae428	-0.13563597
34	0xbdbcd626	-0.09220533
35	0x3c1b454b	0.00947697
36	0x3e0e12cb	0.13874356
37	0xbcb5eb1a	-0.022206832
38	0xbe4561a5	-0.1927553
39	0xbe593441	-0.2121134
40	0xbdc58eb4	-0.09646359
41	0xbeb836ef	-0.3597941
42	0xbddfe0d5	-0.10931555
43	0xbe310e88	-0.172907
44	0xbe8252ea	-0.25453883
45	0xbf49a773	-0.7877113
46	0xbd50d8b5	-0.050987918
47	0xbea07dcd	-0.31345978
48	0xbe0ca355	-0.13734181
49	0x3ebc8bd5	0.36825433
50	0xbd00d2d0	-0.031451046
51	0xbcd948e1	-0.02652401
52	0xbe9597da	-0.29217416
53	0xbd76acd5	-0.06022342
54	0xbf0d67b3	-0.5523636
55	0xbe078efb	-0.13238136
56	0xbe80eb38	-0.25179458
57	0x3cdf6ab4	0.02727256
58	0xbed10b12	-0.40828758
59	0xbd7a0a81	-0.061045174
60	0xbf1adbc2	-0.60491574
61	0xbe37da26	-0.17954311
62	0xbe241d53	-0.16026811
63	0x3e740294	0.23829108
64	0xbe659d2b	-0.22423236
65	0xbe33e9aa	-0.17569605
66	0xbe68f8cd	-0.2275116
67	0xbe2a9ef1	-0.16662194
68	0xbef3b225	-0.4759685
69	0x3e1e7ceb	0.1547734
70	0xbe0757d5	-0.13217099
71	0xbf004b73	-0.50115126
72	0xbf2c43fb	-0.6729123
73	0xbe98c5c5	-0.29838386
74	0xbda64bfb	-0.08119961
75	0xbef85cf3	-0.48508415
76	0xbe99fdf0	-0.3007655
77	0x3caa7f81	0.020812752
78	0xbf2ff76a	-0.687369
79	0xbdb3e86c	-0.08784565
80	0xbe17aaf1	-0.14811303
81	0x3d2fc2bc	0.042910323
82	0x3d847a74	0.064686686
83	0xbe0f0803	-0.139679
84	0x3e0fbdeb	0.14037292
85	0xbde1276f	-0.109938495
86	0x3d525702	0.05135251
87	0x3defc3b6	0.11707251
88	0x3cae54e1	0.021280708
89	0xbd649242	-0.055803545
90	0xbe954f59	-0.291621
91	0xbd756e36	-0.05991956
92	0x3defc477	0.117073946
93	0x3e0bef0c	0.13665408
94	0x3dcf8c58	0.1013419
95	0xbe026ccd	-0.12736817
96	0xbe9d2455	-0.30691782
97	0xbecd8b1a	-0.4014519
98	0x3b9a665c	0.004711909
99	0xbb2662ee	-0.0025388557
100	0x3b84c144	0.0040513594
101	0xbc3681ea	-0.011139372
102	0x3c77d45e	0.015126316
103	0x3b988744	0.004654797
104	0xbc5bdfae	-0.013420029
105	0x3b10aacf	0.0022074466
106	0xbc2ef415	-0.010678311
107	0xbcc2ca1e	-0.023778018
108	0xbbb38592	-0.0054785693
109	0xbb29d378	-0.0025913399
110	0xbc54e5b8	-0.012994222
111	0xbc0258ea	-0.007955769
112	0x3bb5819b	0.005539132
113	0xbb2a2351	-0.0025960992
114	0xbc80a408	-0.015703216
115	0xbcf42a58	-0.029805347
116	0xbcad91b1	-0.021187635
117	0x3bac3b94	0.0052561257
118	0x388e1500	6.774999e-05
119	0xbc14de5a	-0.009086216
120	0xbc847ec8	-0.016173735
121	0xbb88ca71	-0.0041745235
122	0x3be91242	0.007112772
123	0x3c7f62ad	0.015587491
124	0x3c0cd4f2	0.008595692
125	0x3a336f60	0.0006844904
126	0x3aec3529	0.0018021214
127	0xb8cb0b41	-9.6818905e-05
128	0xbd0fab28	-0.035075337
129	0xbcaaa6ad	-0.02083143
130	0x3c8c1faa	0.017104942
131	0xbc7c177d	-0.015386459
132	0xbbee92a0	-0.0072806627
133	0x3b891eb3	0.004184568
134	0x3c8e9319	0.017404126
135	0xba03e148	-0.0005030823
136	0xbc7d4634	-0.015458632
137	0xbc654c4f	-0.013995244
138	0xbbdef2f8	-0.0068038665
139	0x3c825b3b	0.015912643
140	0xbbdab432	-0.006674313
141	0x3c4f50f2	0.012653576
142	0x3a63b160	0.0008685794
143	0xbaf069c1	-0.0018342064
144	0x3ac6dad0	0.0015171412
145	0x3c79dd5a	0.015250528
146	0xbb907652	-0.004408636
147	0xbe363dae	-0.17796966
148	0xbe079f1f	-0.13244294
149	0x3ac62344	0.0015116711
150	0xbdb6dc53	-0.08928742
151	0xbdeb0cbb	-0.114770375
152	0xbd34baeb	-0.04412357
153	0xbe1d90ff	-0.15387343
154	0x3ac59f02	0.0015077295
155	0x3e304a87	0.1721593
156	0x3de622bb	0.11237093
157	0xbd9123c8	-0.07086903
158	0xbeca3614	-0.39494383
159	0xbe15646f	-0.14589094
160	0xbd0d8e12	-0.034559317
161	0xbdb0e73a	-0.08637853
162	0xbf010c6e	-0.5040959
163	0xbebc9dc2	-0.3683911
164	0xbe9ccc96	-0.30624837
165	0xbf117752	-0.56822693
166	0xbf1a920c	-0.603791
167	0x3d03e704	0.032202736
168	0xbf01e37b	-0.5073773
169	0xbeae1ea6	-0.34007758
170	0xbf5f2363	-0.8716337
171	0xbdd0767d	-0.1017885
172	0x3e339629	0.1753775
173	0xbf7f2eff	-0.99681085
174	0xbf2f65ab	-0.6851451
175	0xbb48c759	-0.0030636399
176	0xbf1406f8	-0.57823133
177	0xbf05ff44	-0.5234263
178	0xbe011fc5	-0.12609775
179	0xbdd7d514	-0.10538688
180	0xbe19bf9d	-0.15014501
181	0xbc4cdcae	-0.012503786
182	0x3ea588d6	0.3233096
183	0x3d0024c7	0.031285074
184	0xbd7b821b	-0.061403375
185	0xbd8a0a5e	-0.06740259
186	0x3e012121	0.12610294
187	0x3ecb0c6b	0.39657912
188	0x3d9dba97	0.07701605
189	0xbd206af2	-0.03916449
190	0x3e07775f	0.1322913
191	0x3d9c7f6a	0.0764149
192	0x3daa2d65	0.083094396
193	0x3d291a9a	0.041285135
194	0xbea432e8	-0.32070088
195	0x3eb34d3b	0.3501986
196	0x3dc10f4f	0.09426748
197	0x3e51c8c6	0.20486745
198	0x3e1f3fda	0.15551701
199	0x3e292f25	0.1652189
200	0xbc209bb5	-0.009802748
201	0x3db978be	0.09056233
202	0xbdb0cfa4	-0.08633354
203	0xbed6db56	-0.41964215
204	0x3e890fa5	0.26769748
205	0xbec2413a	-0.3794039
206	0xbe1903c6	-0.14942846
207	0x396556a1	0.00021871414
208	0x3d9e0ad1	0.07716907
209	0xbe9f6cbf	-0.31137654
210	0xbc944f54	-0.018104233
211	0xbe348c16	-0.17631564
212	0xbd8d6e75	-0.06905834
213	0x3e8433be	0.25820726
214	0x3dc54de6	0.096339986
215	0xbd1e5ceb	-0.038662832
216	0x3e334f4a	0.17510715
217	0xbe248b2e	-0.16068718
218	0xbdca4967	-0.09877282
219	0x3d92a0cd	0.071595766
220	0xbe14690d	-0.14493199
221	0xbe8a6856	-0.27032727
222	0xbe2f244a	-0.17103687
223	0x3c8d9760	0.017284095
224	0xbe40dbd2	-0.18833855
225	0xbe237db3	-0.15965919
226	0xbe7f8a2b	-0.2495505
227	0x3d5ac6c4	0.053412214
228	0xbe4cef5e	-0.20013186
229	0xbcd1ed2b	-0.025625786
230	0x3b8920de	0.0041848263
231	0xbe63e3fb	-0.22254936
232	0x3e5ae5a6	0.21376666
233	0x3e3eb88b	0.18625085
234	0x3dab2eb4	0.08358517
235	0x3c04c701	0.008104087
236	0xbc8bfd19	-0.01708846
237	0xbd88fc73	-0.06688776
238	0xbd1afe29	-0.037840042
239	0x3e8456b4	0.258474
240	0x3daf7c2f	0.08568608
241	0x3e0836a5	0.13302095
242	0xbdb4ac80	-0.08821964
243	0xbdba8596	-0.09107511
244	0x3f05da43	0.52286166
245	0xbd4d86ab	-0.050177258
246	0xbdb59b4b	-0.088675104
247	0x3e053d6e	0.13011715
248	0xbe26d8d2	-0.16293648
249	0x3d897daf	0.06713425
250	0x3d018a69	0.03162614
251	0x3e8834df	0.26602837
252	0xbdc6954c	-0.09696445
253	0xbedef98a	-0.43549758
254	0xbe6a0af6	-0.22855744
255	0xbd0108da	-0.031502582

fc1.bias f4 [10]
0	0x3e413c15	0.18870576
1	0x3f19762f	0.5994596
2	0xbd900309	-0.07031829
3	0xbda63288	-0.08115107
4	0xbe8810c7	-0.265753
5	0xbe0fec32	-0.14054945
6	0xbd4c339d	-0.04985391
7	0xbda75c54	-0.08171907
8	0xbdd2b7be	-0.10288952
9	0x3e043a29	0.12912811
